trunk/obspy.signal/obspy/signal/data/noise_models.npz (npz, 24602 bytes, 3 tensors)

low_noise f8 [1001]
00000000: b81e 85eb 51c8 59c0 d7a3 703d 0adb 59c0
00000010: f628 5c8f c2ed 59c0 14ae 47e1 7a00 5ac0
00000020: 3333 3333 3313 5ac0 52b8 1e85 eb25 5ac0
00000030: 713d 0ad7 a338 5ac0 8fc2 f528 5c4b 5ac0
00000040: ae47 e17a 145e 5ac0 54e3 a59b c470 5ac0
00000050: ec51 b81e 8583 5ac0 83c0 caa1 4596 5ac0
00000060: 295c 8fc2 f5a8 5ac0 c1ca a145 b6bb 5ac0
00000070: 6666 6666 66ce 5ac0 fed4 78e9 26e1 5ac0
00000080: a470 3d0a d7f3 5ac0 3bdf 4f8d 9706 5bc0
00000090: e17a 14ae 4719 5bc0 79e9 2631 082c 5bc0
000000a0: 1f85 eb51 b83e 5bc0 b6f3 fdd4 7851 5bc0
000000b0: 5c8f c2f5 2864 5bc0 022b 8716 d976 5bc0
000000c0: 9a99 9999 9989 5bc0 3108 ac1c 5a9c 5bc0
000000d0: d7a3 703d 0aaf 5bc0 6f12 83c0 cac1 5bc0
000000e0: 14ae 47e1 7ad4 5bc0 ba49 0c02 2be7 5bc0
000000f0: 52b8 1e85 ebf9 5bc0 f853 e3a5 9b0c 5cc0
00000100: 8fc2 f528 5c1f 5cc0 2731 08ac 1c32 5cc0
00000110: cdcc cccc cc44 5cc0 643b df4f 8d57 5cc0
00000120: 0ad7 a370 3d6a 5cc0 a245 b6f3 fd7c 5cc0
00000130: 48e1 7a14 ae8f 5cc0 df4f 8d97 6ea2 5cc0
00000140: 85eb 51b8 1eb5 5cc0 2b87 16d9 cec7 5cc0
00000150: c3f5 285c 8fda 5cc0 5a64 3bdf 4fed 5cc0
00000160: 0000 0000 0000 5dc0 986e 1283 c012 5dc0
00000170: 3d0a d7a3 7025 5dc0 d578 e926 3138 5dc0
00000180: 7b14 ae47 e14a 5dc0 1283 c0ca a15d 5dc0
00000190: b81e 85eb 5170 5dc0 5eba 490c 0283 5dc0
000001a0: f628 5c8f c295 5dc0 9cc4 20b0 72a8 5dc0
000001b0: 3333 3333 33bb 5dc0 d9ce f753 e3cd 5dc0
000001c0: 713d 0ad7 a3e0 5dc0 08ac 1c5a 64f3 5dc0
000001d0: ae47 e17a 1406 5ec0 46b6 f3fd d418 5ec0
000001e0: ec51 b81e 852b 5ec0 83c0 caa1 453e 5ec0
000001f0: 295c 8fc2 f550 5ec0 cff7 53e3 a563 5ec0
00000200: 6666 6666 6676 5ec0 fed4 78e9 2689 5ec0
00000210: a470 3d0a d79b 5ec0 3bdf 4f8d 97ae 5ec0
00000220: e17a 14ae 47c1 5ec0 8716 d9ce f7d3 5ec0
00000230: 1f85 eb51 b8e6 5ec0 b6f3 fdd4 78f9 5ec0
00000240: 5c8f c2f5 280c 5fc0 f4fd d478 e91e 5fc0
00000250: 9a99 9999 9931 5fc0 3f35 5eba 4944 5fc0
00000260: d7a3 703d 0a57 5fc0 7d3f 355e ba69 5fc0
00000270: 14ae 47e1 7a7c 5fc0 ac1c 5a64 3b8f 5fc0
00000280: 52b8 1e85 eba1 5fc0 e926 3108 acb4 5fc0
00000290: 8fc2 f528 5cc7 5fc0 2731 08ac 1cda 5fc0
000002a0: cdcc cccc ccec 5fc0 643b df4f 8dff 5fc0
000002b0: 85eb 51b8 1e09 60c0 5839 b4c8 7612 60c0
000002c0: a470 3d0a d71b 60c0 f0a7 c64b 3725 60c0
000002d0: c3f5 285c 8f2e 60c0 9643 8b6c e737 60c0
000002e0: e17a 14ae 4741 60c0 2db2 9def a74a 60c0
000002f0: 0000 0000 0054 60c0 4c37 8941 605d 60c0
00000300: 1f85 eb51 b866 60c0 f2d2 4d62 1070 60c0
00000310: 3d0a d7a3 7079 60c0 1058 39b4 c882 60c0
00000320: 5c8f c2f5 288c 60c0 a8c6 4b37 8995 60c0
00000330: 7b14 ae47 e19e 60c0 c74b 3789 41a8 60c0
00000340: 9a99 9999 99b1 60c0 e5d0 22db f9ba 60c0
00000350: b81e 85eb 51c4 60c0 0456 0e2d b2cd 60c0
00000360: d7a3 703d 0ad7 60c0 aaf1 d24d 62e0 60c0
00000370: f628 5c8f c2e9 60c0 4260 e5d0 22f3 60c0
00000380: 14ae 47e1 7afc 60c0 60e5 d022 db05 61c0
00000390: 3333 3333 330f 61c0 7f6a bc74 9318 61c0
000003a0: 52b8 1e85 eb21 61c0 9eef a7c6 4b2b 61c0
000003b0: 713d 0ad7 a334 61c0 bc74 9318 043e 61c0
000003c0: 8fc2 f528 5c47 61c0 6210 5839 b450 61c0
000003d0: ae47 e17a 145a 61c0 8195 438b 6c63 61c0
000003e0: cdcc cccc cc6c 61c0 1904 560e 2d76 61c0
000003f0: ec51 b81e 857f 61c0 3789 4160 e588 61c0
00000400: 0ad7 a370 3d92 61c0 560e 2db2 9d9b 61c0
00000410: 295c 8fc2 f5a4 61c0 7593 1804 56ae 61c0
00000420: 48e1 7a14 aeb7 61c0 9318 0456 0ec1 61c0
00000430: 6666 6666 66ca 61c0 b29d efa7 c6d3 61c0
00000440: 85eb 51b8 1edd 61c0 5839 b4c8 76e6 61c0
00000450: a470 3d0a d7ef 61c0 f0a7 c64b 37f9 61c0
00000460: c3f5 285c 8f02 62c0 0e2d b29d ef0b 62c0
00000470: e17a 14ae 4715 62c0 b4c8 76be 9f1e 62c0
00000480: 0000 0000 0028 62c0 d34d 6210 5831 62c0
00000490: 1f85 eb51 b83a 62c0 6abc 7493 1844 62c0
000004a0: 3d0a d7a3 704d 62c0 8941 60e5 d056 62c0
000004b0: 5c8f c2f5 2860 62c0 a8c6 4b37 8969 62c0
000004c0: 7b14 ae47 e172 62c0 c74b 3789 417c 62c0
000004d0: 9a99 9999 9985 62c0 6de7 fba9 f18e 62c0
000004e0: b81e 85eb 5198 62c0 0456 0e2d b2a1 62c0
000004f0: d7a3 703d 0aab 62c0 23db f97e 6ab4 62c0
00000500: f628 5c8f c2bd 62c0 4260 e5d0 22c7 62c0
00000510: 14ae 47e1 7ad0 62c0 60e5 d022 dbd9 62c0
00000520: 3333 3333 33e3 62c0 0681 9543 8bec 62c0
00000530: 52b8 1e85 ebf5 62c0 60e5 d022 dbfd 62c0
00000540: e5d0 22db f902 63c0 f2d2 4d62 1008 63c0
00000550: 77be 9f1a 2f0d 63c0 fca9 f1d2 4d12 63c0
00000560: 08ac 1c5a 6417 63c0 8d97 6e12 831c 63c0
00000570: 9a99 9999 9921 63c0 1f85 eb51 b826 63c0
00000580: a470 3d0a d72b 63c0 b072 6891 ed30 63c0
00000590: 355e ba49 0c36 63c0 4260 e5d0 223b 63c0
000005a0: c74b 3789 4140 63c0 4c37 8941 6045 63c0
000005b0: 5839 b4c8 764a 63c0 dd24 0681 954f 63c0
000005c0: e926 3108 ac54 63c0 6f12 83c0 ca59 63c0
000005d0: f4fd d478 e95e 63c0 0000 0000 0064 63c0
000005e0: 85eb 51b8 1e69 63c0 91ed 7c3f 356e 63c0
000005f0: 17d9 cef7 5373 63c0 9cc4 20b0 7278 63c0
00000600: a8c6 4b37 897d 63c0 2db2 9def a782 63c0
00000610: 39b4 c876 be87 63c0 be9f 1a2f dd8c 63c0
00000620: 448b 6ce7 fb91 63c0 508d 976e 1297 63c0
00000630: d578 e926 319c 63c0 e17a 14ae 47a1 63c0
00000640: 6666 6666 66a6 63c0 ec51 b81e 85ab 63c0
00000650: f853 e3a5 9bb0 63c0 7d3f 355e bab5 63c0
00000660: 8941 60e5 d0ba 63c0 0e2d b29d efbf 63c0
00000670: 9318 0456 0ec5 63c0 a01a 2fdd 24ca 63c0
00000680: 2506 8195 43cf 63c0 3108 ac1c 5ad4 63c0
00000690: b6f3 fdd4 78d9 63c0 3bdf 4f8d 97de 63c0
000006a0: 48e1 7a14 aee3 63c0 cdcc cccc cce8 63c0
000006b0: d9ce f753 e3ed 63c0 5eba 490c 02f3 63c0
000006c0: e3a5 9bc4 20f8 63c0 f0a7 c64b 37fd 63c0
000006d0: 7593 1804 5602 64c0 8195 438b 6c07 64c0
000006e0: 0681 9543 8b0c 64c0 8b6c e7fb a911 64c0
000006f0: 986e 1283 c016 64c0 1d5a 643b df1b 64c0
00000700: 295c 8fc2 f520 64c0 ae47 e17a 1426 64c0
00000710: 3333 3333 332b 64c0 3f35 5eba 4930 64c0
00000720: c520 b072 6835 64c0 d122 dbf9 7e3a 64c0
00000730: 560e 2db2 9d3f 64c0 dbf9 7e6a bc44 64c0
00000740: e7fb a9f1 d249 64c0 6de7 fba9 f14e 64c0
00000750: 79e9 2631 0854 64c0 fed4 78e9 2659 64c0
00000760: 83c0 caa1 455e 64c0 8fc2 f528 5c63 64c0
00000770: 14ae 47e1 7a68 64c0 21b0 7268 916d 64c0
00000780: a69b c420 b072 64c0 2b87 16d9 ce77 64c0
00000790: 3789 4160 e57c 64c0 bc74 9318 0482 64c0
000007a0: c976 be9f 1a87 64c0 4e62 1058 398c 64c0
000007b0: d34d 6210 5891 64c0 df4f 8d97 6e96 64c0
000007c0: 643b df4f 8d9b 64c0 713d 0ad7 a3a0 64c0
000007d0: f628 5c8f c2a5 64c0 7b14 ae47 e1aa 64c0
000007e0: 8716 d9ce f7af 64c0 0c02 2b87 16b5 64c0
000007f0: 1904 560e 2dba 64c0 9eef a7c6 4bbf 64c0
-103.13 -103.4225 -103.715 -104.0075 -104.3 -104.5925 -104.885 -105.1775
-105.47 -105.762 -106.055 -106.348 -106.64 -106.933 -107.225 -107.518
-107.81 -108.103 -108.395 -108.688 -108.98 -109.273 -109.565 -109.857
-110.15 -110.443 -110.735 -111.028 -111.32 -111.612 -111.905 -112.197
-112.49 -112.783 -113.075 -113.368 -113.66 -113.953 -114.245 -114.538
-114.83 -115.122 -115.415 -115.708 -116.0 -116.293 -116.585 -116.878
-117.17 -117.463 -117.755 -118.047 -118.34 -118.632 -118.925 -119.217
-119.51 -119.803 -120.095 -120.388 -120.68 -120.973 -121.265 -121.557
-121.85 -122.143 -122.435 -122.728 -123.02 -123.312 -123.605 -123.898
-124.19 -124.483 -124.775 -125.067 -125.36 -125.652 -125.945 -126.238
-126.53 -126.823 -127.115 -127.408 -127.7 -127.993 -128.285 -128.577
-128.87 -129.163 -129.455 -129.747 -130.04 -130.333 -130.625 -130.918
-131.21 -131.502 -131.795 -132.087 -132.38 -132.673 -132.965 -133.258
-133.55 -133.843 -134.135 -134.428 -134.72 -135.012 -135.305 -135.598
-135.89 -136.183 -136.475 -136.768 -137.06 -137.353 -137.645 -137.938
-138.23 -138.522 -138.815 -139.107 -139.4 -139.693 -139.985 -140.278
-140.57 -140.863 -141.155 -141.448 -141.74 -142.033 -142.325 -142.618
-142.91 -143.202 -143.495 -143.788 -144.08 -144.373 -144.665 -144.957
-145.25 -145.542 -145.835 -146.128 -146.42 -146.713 -147.005 -147.298
-147.59 -147.883 -148.175 -148.467 -148.76 -149.053 -149.345 -149.638
-149.93 -150.223 -150.515 -150.808 -151.1 -151.392 -151.685 -151.933
-152.093 -152.252 -152.412 -152.572 -152.731 -152.891 -153.05 -153.21
-153.37 -153.529 -153.689 -153.848 -154.008 -154.168 -154.327 -154.487
-154.646 -154.806 -154.966 -155.125 -155.285 -155.444 -155.604 -155.764
-155.923 -156.083 -156.242 -156.402 -156.562 -156.721 -156.881 -157.04
-157.2 -157.36 -157.519 -157.679 -157.838 -157.998 -158.158 -158.317
-158.477 -158.636 -158.796 -158.956 -159.115 -159.275 -159.434 -159.594
-159.754 -159.913 -160.073 -160.232 -160.392 -160.552 -160.711 -160.871
-161.03 -161.19 -161.35 -161.509 -161.669 -161.828 -161.988 -162.148
-162.307 -162.467 -162.626 -162.786 -162.946 -163.105 -163.265 -163.424
-163.584 -163.744 -163.903 -164.063 -164.222 -164.382 -164.542 -164.701
-164.861 -165.02 -165.18 -165.34 -165.499 -165.659 -165.818 -165.978

model_periods f8 [1001]
00000000: 0000 0000 006a f840 6666 6666 3e14 f840
00000010: 3333 3333 abbf f740 0000 0000 406c f740
00000020: 3333 3333 fb19 f740 6666 6666 d6c8 f640
00000030: 0000 0000 d078 f640 9a99 9999 e129 f640
00000040: 0000 0000 08dc f540 0000 0000 408f f540
00000050: 6666 6666 8643 f540 6666 6666 d6f8 f440
00000060: 3333 3333 2baf f440 cdcc cccc 8466 f440
00000070: cdcc cccc dc1e f440 0000 0000 30d8 f340
00000080: cdcc cccc 7c92 f340 cdcc cccc bc4d f340
00000090: 0000 0000 f009 f340 9a99 9999 11c7 f240
000000a0: cdcc cccc 1c85 f240 0000 0000 1044 f240
000000b0: 6666 6666 e603 f240 0000 0000 a0c4 f140
000000c0: 6666 6666 3686 f140 9a99 9999 a948 f140
000000d0: 3333 3333 f30b f140 3333 3333 13d0 f040
000000e0: cdcc cccc 0495 f040 0000 0000 c85a f040
000000f0: 6666 6666 5621 f040 cdcc cccc 5cd1 ef40
00000100: 9a99 9999 9961 ef40 0000 0000 60f3 ee40
00000110: 9a99 9999 a986 ee40 0000 0000 701b ee40
00000120: 0000 0000 b0b1 ed40 3333 3333 6349 ed40
00000130: 3333 3333 83e2 ec40 0000 0000 107d ec40
00000140: 0000 0000 0019 ec40 0000 0000 50b6 eb40
00000150: 9a99 9999 f954 eb40 9a99 9999 f9f4 ea40
00000160: 9a99 9999 4996 ea40 6666 6666 e638 ea40
00000170: 9a99 9999 c9dc e940 3333 3333 f381 e940
00000180: cdcc cccc 5c28 e940 cdcc cccc fccf e840
00000190: 6666 6666 d678 e840 3333 3333 e322 e840
000001a0: cdcc cccc 1cce e740 0000 0000 807a e740
000001b0: 6666 6666 0628 e740 0000 0000 b0d6 e640
000001c0: 9a99 9999 7986 e640 9a99 9999 5937 e640
000001d0: 0000 0000 50e9 e540 9a99 9999 599c e540
000001e0: 3333 3333 7350 e540 3333 3333 9305 e540
000001f0: cdcc cccc bcbb e440 cdcc cccc ec72 e440
00000200: 9a99 9999 192b e440 0000 0000 40e4 e340
00000210: 3333 3333 639e e340 9a99 9999 7959 e340
00000220: 3333 3333 8315 e340 9a99 9999 79d2 e240
00000230: cdcc cccc 5c90 e240 9a99 9999 294f e240
00000240: 9a99 9999 d90e e240 cdcc cccc 6ccf e140
00000250: cdcc cccc dc90 e140 cdcc cccc 2c53 e140
00000260: 0000 0000 5016 e140 cdcc cccc 4cda e040
00000270: 9a99 9999 199f e040 9a99 9999 b964 e040
00000280: 3333 3333 232b e040 3333 3333 b3e4 df40
00000290: cdcc cccc ac74 df40 cdcc cccc 2c06 df40
000002a0: 3333 3333 3399 de40 9a99 9999 b92d de40
000002b0: 0000 0000 c0c3 dd40 3333 3333 335b dd40
000002c0: 3333 3333 13f4 dc40 0000 0000 608e dc40
000002d0: 3333 3333 132a dc40 6666 6666 26c7 db40
000002e0: 3333 3333 9365 db40 9a99 9999 5905 db40
000002f0: 3333 3333 73a6 da40 3333 3333 d348 da40
00000300: 0000 0000 80ec d940 3333 3333 7391 d940
00000310: 6666 6666 a637 d940 3333 3333 13df d840
00000320: 9a99 9999 b987 d840 cdcc cccc 8c31 d840
00000330: 3333 3333 93dc d740 6666 6666 c688 d740
00000340: 9a99 9999 1936 d740 3333 3333 93e4 d640
00000350: 6666 6666 2694 d640 9a99 9999 d944 d640
00000360: 6666 6666 a6f6 d540 0000 0000 80a9 d540
00000370: 6666 6666 665d d540 9a99 9999 5912 d540
00000380: 9a99 9999 59c8 d440 9a99 9999 597f d440
00000390: 9a99 9999 5937 d440 9a99 9999 59f0 d340
000003a0: cdcc cccc 4caa d340 9a99 9999 3965 d340
000003b0: 9a99 9999 1921 d340 cdcc cccc ecdd d240
000003c0: 6666 6666 a69b d240 cdcc cccc 4c5a d240
000003d0: 3333 3333 d319 d240 0000 0000 40da d140
000003e0: cdcc cccc 8c9b d140 3333 3333 b35d d140
000003f0: 3333 3333 b320 d140 cdcc cccc 8ce4 d040
00000400: 3333 3333 33a9 d040 cdcc cccc ac6e d040
00000410: 9a99 9999 f934 d040 9a99 9999 19f8 cf40
00000420: cdcc cccc cc87 cf40 cdcc cccc 0c19 cf40
00000430: cdcc cccc ccab ce40 9a99 9999 1940 ce40
00000440: 9a99 9999 d9d5 cd40 cdcc cccc 0c6d cd40
00000450: 3333 3333 b305 cd40 0000 0000 c09f cc40
00000460: 3333 3333 333b cc40 cdcc cccc 0cd8 cb40
00000470: 0000 0000 4076 cb40 cdcc cccc cc15 cb40
00000480: 6666 6666 a6b6 ca40 cdcc cccc cc58 ca40
00000490: 0000 0000 40fc c940 0000 0000 00a1 c940
000004a0: 0000 0000 0047 c940 3333 3333 33ee c840
000004b0: 6666 6666 a696 c840 0000 0000 4040 c840
000004c0: 9a99 9999 19eb c740 cdcc cccc 0c97 c740
000004d0: 3333 3333 3344 c740 0000 0000 80f2 c640
000004e0: 6666 6666 e6a1 c640 6666 6666 6652 c640
000004f0: 0000 0000 0004 c640 6666 6666 a6b6 c540
00000500: 6666 6666 666a c540 6666 6666 261f c540
00000510: 0000 0000 00d5 c440 48e1 7a14 ce8b c440
00000520: 713d 0ad7 a343 c440 1f85 eb51 78fc c340
00000530: 713d 0ad7 43b6 c340 e17a 14ae 0771 c340
00000540: 0ad7 a370 bd2c c340 713d 0ad7 63e9 c240
00000550: a470 3d0a f7a6 c240 3333 3333 7365 c240
00000560: ae47 e17a d424 c240 9a99 9999 19e5 c140
00000570: 85eb 51b8 3ea6 c140 7b14 ae47 4168 c140
00000580: 0ad7 a370 1d2b c140 c3f5 285c cfee c040
00000590: 295c 8fc2 55b3 c040 cdcc cccc ac78 c040
000005a0: b81e 85eb d13e c040 f628 5c8f c205 c040
000005b0: 295c 8fc2 f59a bf40 3333 3333 f32b bf40
000005c0: 295c 8fc2 75be be40 1f85 eb51 7852 be40
000005d0: 295c 8fc2 f5e7 bd40 52b8 1e85 eb7e bd40
000005e0: b81e 85eb 5117 bd40 713d 0ad7 23b1 bc40
000005f0: 8fc2 f528 5c4c bc40 295c 8fc2 f5e8 bb40
00000600: 48e1 7a14 ee86 bb40 0ad7 a370 3d26 bb40
00000610: 7b14 ae47 e1c6 ba40 ae47 e17a d468 ba40
00000620: b81e 85eb 110c ba40 ae47 e17a 94b0 b940
00000630: a470 3d0a 5756 b940 9a99 9999 59fd b840
00000640: b81e 85eb 91a5 b840 f628 5c8f 024f b840
00000650: 85eb 51b8 9ef9 b740 5c8f c2f5 68a5 b740
00000660: 9a99 9999 5952 b740 3d0a d7a3 7000 b740
00000670: 713d 0ad7 a3af b640 295c 8fc2 f55f b640
00000680: 85eb 51b8 5e11 b640 9a99 9999 d9c3 b540
00000690: 5c8f c2f5 6877 b540 f628 5c8f 022c b540
000006a0: 6666 6666 a6e1 b440 cdcc cccc 4c98 b440
000006b0: 295c 8fc2 f54f b440 8fc2 f528 9c08 b440
000006c0: 0000 0000 40c2 b340 a470 3d0a d77c b340
000006d0: 713d 0ad7 6338 b340 7b14 ae47 e1f4 b240
000006e0: cdcc cccc 4cb2 b240 7b14 ae47 a170 b240
000006f0: 8fc2 f528 dc2f b240 14ae 47e1 faef b140
00000700: 14ae 47e1 fab0 b140 a470 3d0a d772 b140
00000710: cdcc cccc 8c35 b140 9a99 9999 19f9 b040
00000720: 14ae 47e1 7abd b040 3d0a d7a3 b082 b040
00000730: 3d0a d7a3 b048 b040 0000 0000 800f b040
00000740: 48e1 7a14 2eae af40 6666 6666 e63e af40
00000750: 713d 0ad7 23d1 ae40 6666 6666 e664 ae40
00000760: 713d 0ad7 23fa ad40 8fc2 f528 dc90 ad40
00000770: 0000 0000 0029 ad40 ae47 e17a 94c2 ac40
00000780: c3f5 285c 8f5d ac40 52b8 1e85 ebf9 ab40
00000790: 5c8f c2f5 a897 ab40 0ad7 a370 bd36 ab40
000007a0: 5c8f c2f5 28d7 aa40 7b14 ae47 e178 aa40
000007b0: 6666 6666 e61b aa40 3333 3333 33c0 a940
000007c0: 0ad7 a370 bd65 a940 d7a3 703d 8a0c a940
000007d0: c3f5 285c 8fb4 a840 e17a 14ae c75d a840
000007e0: 3333 3333 3308 a840 e17a 14ae c7b3 a740
000007f0: ec51 b81e 8560 a740 52b8 1e85 6b0e a740
100000.0 98627.9 97274.7 95940.0 94623.7 93325.4 92045.0 90782.1
89536.5 88308.0 87096.4 85901.4 84722.7 83560.3 82413.8 81283.0
80167.8 79067.8 77983.0 76913.1 75857.8 74817.0 73790.4 72778.0
71779.4 70794.6 69823.2 68865.2 67920.3 66988.5 66069.4 65162.9
64268.8 63387.0 62517.3 61659.5 60813.5 59979.1 59156.1 58344.5
57544.0 56754.5 55975.8 55207.8 54450.3 53703.2 52966.3 52239.6
51522.9 50815.9 50118.7 49431.1 48752.9 48084.0 47424.2 46773.5
46131.8 45498.8 44874.5 44258.8 43651.6 43052.6 42461.9 41879.4
41304.8 40738.0 40179.1 39627.8 39084.1 38547.8 38018.9 37497.3
36982.8 36475.4 35974.9 35481.4 34994.5 34514.4 34040.8 33573.8
33113.1 32658.8 32210.7 31768.7 31332.8 30902.9 30479.0 30060.8
29648.3 29241.5 28840.3 28444.6 28054.3 27669.4 27289.8 26915.3
26546.0 26181.8 25822.6 25468.3 25118.9 24774.2 24434.3 24099.1
23768.4 23442.3 23120.6 22803.4 22490.6 22182.0 21877.6 21577.4
21281.4 20989.4 20701.4 20417.4 20137.2 19860.9 19588.4 19319.7
19054.6 18793.2 18535.3 18281.0 18030.2 17782.8 17538.8 17298.2
17060.8 16826.7 16595.9 16368.2 16143.6 15922.1 15703.6 15488.2
15275.7 15066.1 14859.4 14655.5 14454.4 14256.1 14060.5 13867.6
13677.3 13489.6 13304.5 13122.0 12942.0 12764.4 12589.3 12416.5
12246.2 12078.1 11912.4 11749.0 11587.8 11428.8 11272.0 11117.3
10964.8 10814.3 10666.0 10519.61 10375.28 10232.94 10092.53 9954.06
9817.48 9682.78 9549.93 9418.9 9289.66 9162.2 9036.49 8912.51
8790.23 8669.62 8550.67 8433.35 8317.64 8203.52 8090.96 7979.95
7870.46 7762.47 7655.96 7550.92 7447.32 7345.14 7244.36 7144.96
7046.93 6950.24 6854.88 6760.83 6668.07 6576.58 6486.34 6397.35
6309.57 6223.01 6137.62 6053.41 5970.35 5888.44 5807.64 5727.96
5649.37 5571.85 5495.41 5420.01 5345.65 5272.3 5199.96 5128.61
5058.25 4988.84 4920.39 4852.88 4786.3 4720.63 4655.86 4591.98
4528.98 4466.84 4405.55 4345.1 4285.48 4226.69 4168.69 4111.5
4055.09 3999.45 3944.57 3890.45 3837.07 3784.43 3732.5 3681.29
3630.78 3580.96 3531.83 3483.37 3435.58 3388.44 3341.95 3296.1
3250.87 3206.27 3162.28 3118.89 3076.1 3033.89 2992.26 2951.21

high_noise f8 [1001]
00000000: e17a 14ae 4741 48c0 d3de e00b 9359 48c0
00000010: c442 ad69 de71 48c0 5249 9d80 268a 48c0
00000020: 43ad 69de 71a2 48c0 3411 363c bdba 48c0
00000030: 2575 029a 08d3 48c0 17d9 cef7 53eb 48c0
00000040: a4df be0e 9c03 49c0 9643 8b6c e71b 49c0
00000050: 87a7 57ca 3234 49c0 780b 2428 7e4c 49c0
00000060: 696f f085 c964 49c0 5bd3 bce3 147d 49c0
00000070: e8d9 acfa 5c95 49c0 d93d 7958 a8ad 49c0
00000080: cba1 45b6 f3c5 49c0 bc05 1214 3fde 49c0
00000090: 4a0c 022b 87f6 49c0 3b70 ce88 d20e 4ac0
000000a0: 2cd4 9ae6 1d27 4ac0 1d38 6744 693f 4ac0
000000b0: 0f9c 33a2 b457 4ac0 0000 0000 0070 4ac0
000000c0: 8e06 f016 4888 4ac0 7f6a bc74 93a0 4ac0
000000d0: 70ce 88d2 deb8 4ac0 6132 5530 2ad1 4ac0
000000e0: 5396 218e 75e9 4ac0 e09c 11a5 bd01 4bc0
000000f0: d200 de02 091a 4bc0 c364 aa60 5432 4bc0
00000100: b4c8 76be 9f4a 4bc0 a52c 431c eb62 4bc0
00000110: 3333 3333 337b 4bc0 2497 ff90 7e93 4bc0
00000120: 16fb cbee c9ab 4bc0 075f 984c 15c4 4bc0
00000130: 9565 8863 5ddc 4bc0 86c9 54c1 a8f4 4bc0
00000140: 772d 211f f40c 4cc0 6891 ed7c 3f25 4cc0
00000150: 5af5 b9da 8a3d 4cc0 e7fb a9f1 d255 4cc0
00000160: d95f 764f 1e6e 4cc0 cac3 42ad 6986 4cc0
00000170: bb27 0f0b b59e 4cc0 ac8b db68 00b7 4cc0
00000180: 3a92 cb7f 48cf 4cc0 2bf6 97dd 93e7 4cc0
00000190: 1d5a 643b dfff 4cc0 0ebe 3099 2a18 4dc0
000001a0: ff21 fdf6 7530 4dc0 8d28 ed0d be48 4dc0
000001b0: 7e8c b96b 0961 4dc0 6ff0 85c9 5479 4dc0
000001c0: 6154 5227 a091 4dc0 52b8 1e85 eba9 4dc0
000001d0: e0be 0e9c 33c2 4dc0 d122 dbf9 7eda 4dc0
000001e0: c286 a757 caf2 4dc0 b3ea 73b5 150b 4ec0
000001f0: a54e 4013 6123 4ec0 3255 302a a93b 4ec0
00000200: 24b9 fc87 f453 4ec0 151d c9e5 3f6c 4ec0
00000210: 0681 9543 8b84 4ec0 f7e4 61a1 d69c 4ec0
00000220: e948 2eff 21b5 4ec0 764f 1e16 6acd 4ec0
00000230: 68b3 ea73 b5e5 4ec0 5917 b7d1 00fe 4ec0
00000240: 4a7b 832f 4c16 4fc0 3bdf 4f8d 972e 4fc0
00000250: c9e5 3fa4 df46 4fc0 ba49 0c02 2b5f 4fc0
00000260: acad d85f 7677 4fc0 9d11 a5bd c18f 4fc0
00000270: 8e75 711b 0da8 4fc0 1c7c 6132 55c0 4fc0
00000280: 0de0 2d90 a0d8 4fc0 fe43 faed ebf0 4fc0
00000290: f853 e3a5 9b04 50c0 3f57 5bb1 bf10 50c0
000002a0: 3789 4160 e51c 50c0 30bb 270f 0b29 50c0
000002b0: 29ed 0dbe 3035 50c0 211f f46c 5641 50c0
000002c0: 6822 6c78 7a4d 50c0 6154 5227 a059 50c0
000002d0: 5986 38d6 c565 50c0 52b8 1e85 eb71 50c0
000002e0: 4bea 0434 117e 50c0 91ed 7c3f 358a 50c0
000002f0: 8a1f 63ee 5a96 50c0 8351 499d 80a2 50c0
00000300: 7b83 2f4c a6ae 50c0 74b5 15fb cbba 50c0
00000310: bbb8 8d06 f0c6 50c0 b3ea 73b5 15d3 50c0
00000320: ac1c 5a64 3bdf 50c0 a54e 4013 61eb 50c0
00000330: 9d80 26c2 86f7 50c0 e483 9ecd aa03 51c0
00000340: ddb5 847c d00f 51c0 d5e7 6a2b f61b 51c0
00000350: ce19 51da 1b28 51c0 c74b 3789 4134 51c0
00000360: 0e4f af94 6540 51c0 0681 9543 8b4c 51c0
00000370: ffb2 7bf2 b058 51c0 f7e4 61a1 d664 51c0
00000380: f016 4850 fc70 51c0 371a c05b 207d 51c0
00000390: 304c a60a 4689 51c0 287e 8cb9 6b95 51c0
000003a0: 21b0 7268 91a1 51c0 19e2 5817 b7ad 51c0
000003b0: 1214 3fc6 dcb9 51c0 5917 b7d1 00c6 51c0
000003c0: 5249 9d80 26d2 51c0 4a7b 832f 4cde 51c0
000003d0: 43ad 69de 71ea 51c0 3bdf 4f8d 97f6 51c0
000003e0: 82e2 c798 bb02 52c0 7b14 ae47 e10e 52c0
000003f0: 7446 94f6 061b 52c0 6c78 7aa5 2c27 52c0
00000400: b37b f2b0 5033 52c0 acad d85f 763f 52c0
00000410: a4df be0e 9c4b 52c0 9d11 a5bd c157 52c0
00000420: 9643 8b6c e763 52c0 dc46 0378 0b70 52c0
00000430: d578 e926 317c 52c0 ceaa cfd5 5688 52c0
00000440: c6dc b584 7c94 52c0 bf0e 9c33 a2a0 52c0
00000450: 0612 143f c6ac 52c0 fe43 faed ebb8 52c0
00000460: f775 e09c 11c5 52c0 f0a7 c64b 37d1 52c0
00000470: e8d9 acfa 5cdd 52c0 2fdd 2406 81e9 52c0
00000480: 280f 0bb5 a6f5 52c0 2041 f163 cc01 53c0
00000490: 1973 d712 f20d 53c0 12a5 bdc1 171a 53c0
000004a0: 58a8 35cd 3b26 53c0 51da 1b7c 6132 53c0
000004b0: 4a0c 022b 873e 53c0 423e e8d9 ac4a 53c0
000004c0: 3b70 ce88 d256 53c0 34a2 b437 f862 53c0
000004d0: 7aa5 2c43 1c6f 53c0 73d7 12f2 417b 53c0
000004e0: 6c09 f9a0 6787 53c0 643b df4f 8d93 53c0
000004f0: ab3e 575b b19f 53c0 a470 3d0a d7ab 53c0
00000500: 9ca2 23b9 fcb7 53c0 95d4 0968 22c4 53c0
00000510: 8e06 f016 48d0 53c0 8638 d6c5 6ddc 53c0
00000520: cd3b 4ed1 91e8 53c0 c66d 3480 b7f4 53c0
00000530: be9f 1a2f dd00 54c0 b7d1 00de 020d 54c0
00000540: fed4 78e9 2619 54c0 f706 5f98 4c25 54c0
00000550: ef38 4547 7231 54c0 e86a 2bf6 973d 54c0
00000560: e09c 11a5 bd49 54c0 27a0 89b0 e155 54c0
00000570: 20d2 6f5f 0762 54c0 1904 560e 2d6e 54c0
00000580: 1136 3cbd 527a 54c0 0a68 226c 7886 54c0
00000590: 516b 9a77 9c92 54c0 499d 8026 c29e 54c0
000005a0: 42cf 66d5 e7aa 54c0 3b01 4d84 0db7 54c0
000005b0: 3333 3333 33c3 54c0 7a36 ab3e 57cf 54c0
000005c0: 7368 91ed 7cdb 54c0 6b9a 779c a2e7 54c0
000005d0: 64cc 5d4b c8f3 54c0 5dfe 43fa edff 54c0
000005e0: a301 bc05 120c 55c0 9c33 a2b4 3718 55c0
000005f0: 9565 8863 5d24 55c0 8d97 6e12 8330 55c0
00000600: 86c9 54c1 a83c 55c0 7ffb 3a70 ce48 55c0
00000610: c5fe b27b f254 55c0 be30 992a 1861 55c0
00000620: b762 7fd9 3d6d 55c0 af94 6588 6379 55c0
00000630: f697 dd93 8785 55c0 efc9 c342 ad91 55c0
00000640: e7fb a9f1 d29d 55c0 e02d 90a0 f8a9 55c0
00000650: d95f 764f 1eb6 55c0 2063 ee5a 42c2 55c0
00000660: 1895 d409 68ce 55c0 11c7 bab8 8dda 55c0
00000670: 09f9 a067 b3e6 55c0 022b 8716 d9f2 55c0
00000680: fb5c 6dc5 fefe 55c0 4260 e5d0 220b 56c0
00000690: 3a92 cb7f 4817 56c0 33c4 b12e 6e23 56c0
000006a0: 2bf6 97dd 932f 56c0 72f9 0fe9 b73b 56c0
000006b0: 6b2b f697 dd47 56c0 645d dc46 0354 56c0
000006c0: 5c8f c2f5 2860 56c0 55c1 a8a4 4e6c 56c0
000006d0: 9cc4 20b0 7278 56c0 94f6 065f 9884 56c0
000006e0: 8d28 ed0d be90 56c0 865a d3bc e39c 56c0
000006f0: 7e8c b96b 09a9 56c0 c58f 3177 2db5 56c0
00000700: bec1 1726 53c1 56c0 b6f3 fdd4 78cd 56c0
00000710: af25 e483 9ed9 56c0 a857 ca32 c4e5 56c0
00000720: ee5a 423e e8f1 56c0 e78c 28ed 0dfe 56c0
00000730: e0be 0e9c 330a 57c0 d8f0 f44a 5916 57c0
00000740: d122 dbf9 7e22 57c0 1826 5305 a32e 57c0
00000750: 1058 39b4 c83a 57c0 098a 1f63 ee46 57c0
00000760: 02bc 0512 1453 57c0 faed ebc0 395f 57c0
00000770: 41f1 63cc 5d6b 57c0 3a23 4a7b 8377 57c0
00000780: 3255 302a a983 57c0 2b87 16d9 ce8f 57c0
00000790: 24b9 fc87 f49b 57c0 6abc 7493 18a8 57c0
000007a0: 63ee 5a42 3eb4 57c0 5c20 41f1 63c0 57c0
000007b0: 5452 27a0 89cc 57c0 4d84 0d4f afd8 57c0
000007c0: 9487 855a d3e4 57c0 8cb9 6b09 f9f0 57c0
000007d0: 85eb 51b8 1efd 57c0 7e1d 3867 4409 58c0
000007e0: 764f 1e16 6a15 58c0 6f81 04c5 8f21 58c0
000007f0: b684 7cd0 b32d 58c0 aeb6 627f d939 58c0
-48.51 -48.6998 -48.8896 -49.0793 -49.2691 -49.4589 -49.6487 -49.8385
-50.0282 -50.218 -50.4078 -50.5976 -50.7874 -50.9772 -51.1669 -51.3567
-51.5465 -51.7363 -51.926 -52.1158 -52.3056 -52.4954 -52.6852 -52.875
-53.0647 -53.2545 -53.4443 -53.6341 -53.8239 -54.0136 -54.2034 -54.3932
-54.583 -54.7728 -54.9625 -55.1523 -55.3421 -55.5319 -55.7216 -55.9114
-56.1012 -56.291 -56.4808 -56.6705 -56.8603 -57.0501 -57.2399 -57.4297
-57.6194 -57.8092 -57.999 -58.1888 -58.3786 -58.5683 -58.7581 -58.9479
-59.1377 -59.3275 -59.5172 -59.707 -59.8968 -60.0866 -60.2764 -60.4661
-60.6559 -60.8457 -61.0355 -61.2253 -61.4151 -61.6048 -61.7946 -61.9844
-62.1742 -62.364 -62.5537 -62.7435 -62.9333 -63.1231 -63.3129 -63.5026
-63.6924 -63.8822 -64.072 -64.2617 -64.4515 -64.6413 -64.8311 -65.0209
-65.2106 -65.4004 -65.5902 -65.78 -65.9698 -66.1595 -66.3493 -66.5391
-66.7289 -66.9187 -67.1084 -67.2982 -67.488 -67.6778 -67.8676 -68.0573
-68.2471 -68.4369 -68.6267 -68.8165 -69.0062 -69.196 -69.3858 -69.5756
-69.7654 -69.9551 -70.1449 -70.3347 -70.5245 -70.7143 -70.9041 -71.0938
-71.2836 -71.4734 -71.6632 -71.853 -72.0427 -72.2325 -72.4223 -72.6121
-72.8018 -72.9916 -73.1814 -73.3712 -73.561 -73.7507 -73.9405 -74.1303
-74.3201 -74.5099 -74.6996 -74.8894 -75.0792 -75.269 -75.4588 -75.6485
-75.8383 -76.0281 -76.2179 -76.4077 -76.5974 -76.7872 -76.977 -77.1668
-77.3566 -77.5464 -77.7361 -77.9259 -78.1157 -78.3055 -78.4952 -78.685
-78.8748 -79.0646 -79.2544 -79.4442 -79.6339 -79.8237 -80.0135 -80.2033
-80.393 -80.5828 -80.7726 -80.9624 -81.1522 -81.3419 -81.5317 -81.7215
-81.9113 -82.1011 -82.2908 -82.4806 -82.6704 -82.8602 -83.05 -83.2397
-83.4295 -83.6193 -83.8091 -83.9989 -84.1886 -84.3784 -84.5682 -84.758
-84.9478 -85.1376 -85.3273 -85.5171 -85.7069 -85.8967 -86.0864 -86.2762
-86.466 -86.6558 -86.8456 -87.0353 -87.2251 -87.4149 -87.6047 -87.7945
-87.9843 -88.174 -88.3638 -88.5536 -88.7434 -88.9331 -89.1229 -89.3127
-89.5025 -89.6923 -89.882 -90.0718 -90.2616 -90.4514 -90.6412 -90.8309
-91.0207 -91.2105 -91.4003 -91.5901 -91.7798 -91.9696 -92.1594 -92.3492
-92.539 -92.7287 -92.9185 -93.1083 -93.2981 -93.4879 -93.6776 -93.8674
-94.0572 -94.247 -94.4368 -94.6265 -94.8163 -95.0061 -95.1959 -95.3857
-95.5754 -95.7652 -95.955 -96.1448 -96.3346 -96.5244 -96.7141 -96.9039
