obspy/signal/data/idc_noise_models.npz (npz, 2654 bytes, 3 tensors)

model_periods f8 [78]
00000000: 3783 9ab0 81f6 5540 ff50 26d7 6325 5440
00000010: c20b b7d1 db7a 5240 89f4 dc23 67f3 5040
00000020: 607f c114 dc18 4f40 791a ce15 4e86 4c40
00000030: 7f23 fb89 3a2a 4a40 202e 4abc 1f00 4840
00000040: beee 3468 db03 4640 d16e b54d c131 4440
00000050: 8374 6495 fb85 4240 f903 bde7 b4fd 4040
00000060: 020d 7a3c f22b 3f40 162f 06e4 a497 3c40
00000070: 92c4 0326 223a 3a40 6c87 6186 b60e 3840
00000080: 88df 503d 3d11 3640 d025 8b43 e93d 3440
00000090: 142b f60f 3e91 3240 59d9 03ef 0808 3140
000000a0: b1a4 2ace b53e 2f40 407e 6e3c 06a9 2c40
000000b0: 7379 fb18 3b4a 2a40 17fc b62e 561d 2840
000000c0: b22c dd34 a71e 2640 2914 bc28 374a 2440
000000d0: f54c af62 879c 2240 ea1a 803d 6312 2140
000000e0: fd25 24ee b351 1f40 6229 6f25 72ba 1c40
000000f0: b5a3 e864 0e5a 1a40 9d8b aeba fe2b 1840
00000100: faac cb53 192c 1640 3cef a188 8c56 1440
00000110: 3cec b891 d7a7 1240 5dbf 02d7 c31c 1140
00000120: ece9 9f99 bd64 0f40 e536 74a5 e8cb 0c40
00000130: d75b 8913 136a 0a40 4b7c af2f b03a 0840
00000140: 9438 119f 9339 0640 7898 c867 e962 0440
00000150: 6da2 3ea1 2eb3 0240 450f 5fbf 2a27 0140
00000160: 5a7c a2d7 d277 ff3f 97a9 4434 3edd fc3f
00000170: 64e1 d17e 217a fa3f 475d 2493 6a49 f83f
00000180: faaa a51b 1647 f63f c5b4 beca 4d6f f43f
00000190: fa91 6e95 8cbe f23f 77a6 6afa 9731 f13f
000001a0: 2cad 34af f38a ef3f b219 4f84 f5ee ec3f
000001b0: 3166 adac 398a ea3f 1892 172e 0958 e83f
000001c0: cbe4 83ce a054 e63f 32ae 15b6 b97b e43f
000001d0: 3b39 3f18 d5c9 e23f 7875 fd8b 0b3c e13f
000001e0: f292 6327 209e df3f ff89 10f0 8b00 dd3f
000001f0: 15b5 0aa3 5b9a da3f f8a4 243b fa66 d83f
00000200: 91cd a9bc 3362 d63f df41 c932 0e88 d43f
00000210: 0d5d 923c 5dd5 d23f e5c2 f177 8546 d13f
00000220: 5708 2d74 28b1 cf3f 7397 ad0c 2d12 cd3f
00000230: 1d34 dc67 87aa ca3f f872 7ba1 aa75 c83f
00000240: a655 18eb ce6f c63f 9fc4 3938 a894 c43f
00000250: 2738 eff7 cfe0 c23f 056a b0a0 eb50 c13f
00000260: 6448 e115 9cc4 bf3f f5e4 a5e0 d823 bd3f
87.8516656407272 80.58421877614818 73.91966669917659 67.8031701715246 62.19421634147761 57.04925797046321 52.32991146814947 48.00096849081115
44.030133272024145 40.38871165617969 37.04674022107158 33.982083289425596 31.17166498164898 28.592359782705067 26.227083564681898 24.057472609339513
22.067340690845896 20.241840573760612 18.567353246307064 17.03138631671877 15.622480814652905 14.330125702369628 13.144982128808556 12.057298145138743
11.059869434355594 10.144952080687363 9.30572040929699 8.53591339291366 7.829787941891024 7.182076058301705 6.587945534419238 6.042963902381328
5.543065366083505 5.084520468600939 4.663908268844406 4.27809081987638 3.9241897584845358 3.599564831360896 3.3017941976827205 3.028656361143964
2.7781135966425357 2.5482967479793466 2.3374912831534886 2.144124503220072 1.9667538092833383 1.804014400646883 1.6548170999431813 1.517923903249384
1.392355068203584 1.277173797581143 1.1715207898315598 1.0746078283213174 0.9857119009006161 0.9041698059234504 0.8293732044796284 0.7607465648876
0.6978305848598664 0.6401032024709308 0.5871377442906928 0.5385797247105719 0.4940262207658598 0.45315836376008173 0.415671261997731 0.3812852456636189
0.3497437803664179 0.320804166408406 0.29427271762092816 0.2699292823154294 0.24759393379833014 0.2271171867279765 0.2083291298989999 0.1910908974158685
0.1752871177601893 0.1607866549052561 0.14748572927641243 0.13528199525974585 0.12409377607517197 0.11382823452540321

high_noise f8 [78]
00000000: 5c8f c2f5 28dc 4140 1461 c3d3 2bcd 4140
00000010: cdcc cccc ccbc 4140 42cf 66d5 e7aa 4140
00000020: d6c5 6d34 8097 4140 789c a223 b984 4140
00000030: 63ee 5a42 3e70 4140 52b8 1e85 eb59 4140
00000040: 363c bd52 9641 4140 a470 3d0a d7d3 4040
00000050: 5f98 4c15 8c72 4040 96b2 0c71 ac2b 4040
00000060: 5c42 3ee8 d9bc 3f40 bada 8afd 6547 3f40
00000070: 64aa 6054 52c7 3e40 b81e 85eb 5118 3e40
00000080: eec9 c342 ad59 3d40 6c78 7aa5 2c53 3c40
00000090: 32e6 ae25 e4e3 3a40 caa1 45b6 f37d 3940
000000a0: c66d 3480 b7b0 3740 6b9a 779c a2c3 3640
000000b0: 7571 1b0d e01d 3640 7958 a835 cd7b 3540
000000c0: 9fab add8 5f36 3540 4ed1 915c fe63 3440
000000d0: f4db d781 73e6 3340 24b9 fc87 f42b 3340
000000e0: e8fb a9f1 d29d 3240 6ff0 85c9 54e1 3140
000000f0: 27c2 86a7 576a 3140 9d80 26c2 8667 3040
00000100: c2f5 285c 8f02 2f40 14d0 44d8 f054 2d40
00000110: 363c bd52 9641 2c40 e4a5 9bc4 2010 2b40
00000120: eeeb c039 230a 2a40 1a2f dd24 06a1 2840
00000130: ec51 b81e 856b 2740 7c14 ae47 e13a 2540
00000140: ed2f bb27 0fcb 2240 4f40 1361 c333 2040
00000150: 92ed 7c3f 351e 1b40 a982 5149 9d40 1540
00000160: ae69 de71 8a8e 0e40 5149 9d80 26c2 0440
00000170: 1d5a 643b df4f ed3f 7dae b662 7fd9 d5bf
00000180: 1058 39b4 c876 f5bf 1ac0 5b20 41f1 04c0
00000190: 5c20 41f1 63cc 11c0 c6dc b584 7c10 19c0
000001a0: ebe2 361a c07b 20c0 cd3b 4ed1 917c 22c0
000001b0: bbb8 8d06 f056 24c0 499d 8026 c2e6 25c0
000001c0: 6d56 7dae b642 27c0 0e2d b29d ef07 28c0
000001d0: 7cf2 b050 6bfa 28c0 c74b 3789 4120 2ac0
000001e0: e78c 28ed 0dfe 2ac0 8fc2 f528 5c4f 2cc0
000001f0: 33a2 b437 f8e2 2dc0 c05b 2041 f143 2fc0
00000200: 7dd0 b359 f559 30c0 9790 0f7a 360b 31c0
00000210: c520 b072 68a1 31c0 86c9 54c1 a824 32c0
00000220: b5a6 79c7 29aa 32c0 94f6 065f 981c 33c0
00000230: a60a 4625 7572 33c0 7502 9a08 1bee 33c0
00000240: 83c0 caa1 4556 34c0 0c02 2b87 16e9 34c0
00000250: 5f29 cb10 c7aa 35c0 703d 0ad7 a390 36c0
00000260: 1904 560e 2db2 37c0 2063 ee5a 420e 39c0
35.72 35.602900000000005 35.475 35.3352 35.1836 35.0369 34.8769 34.7025
34.5124 33.655 32.8949 32.3412 31.737700000000004 31.2789 30.778599999999997 30.095
29.350299999999997 28.3249 26.8902 25.491999999999997 23.6903 22.7642 22.116699999999998 21.4836
21.2124 20.3906 19.900199999999998 19.1717 18.616500000000002 17.8802 17.4154 16.4044
15.504999999999999 14.6659 14.1281 13.531500000000001 13.0198 12.314499999999999 11.71 10.615000000000002
9.396600000000001 8.1011 6.7795000000000005 5.3130999999999995 3.8196000000000003 2.5947999999999998 0.916 -0.3414
-1.3415 -2.6178 -4.4496 -6.2661 -8.2417 -9.2433 -10.1698 -10.9507
-11.6303 -12.0155 -12.4891 -13.063 -13.4962 -14.155 -14.943299999999999 -15.6327
-16.3514 -17.0438 -17.6305 -18.1432 -18.6647 -19.1117 -19.4471 -19.9301
-20.337 -20.9105 -21.6671 -22.564999999999998 -23.696 -25.0557

low_noise f8 [78]
00000000: 8afd 65f7 e4b1 36c0 09f9 a067 b33a 37c0
00000010: e314 1dc9 e5cf 37c0 6dc5 feb2 7b72 38c0
00000020: a4df be0e 9c23 39c0 4b37 8941 60d5 39c0
00000030: 8273 4694 f696 3ac0 2731 08ac 1c6a 3bc0
00000040: e236 1ac0 5b50 3cc0 eae2 361a c05b 3dc0
00000050: e561 a1d6 347f 3ec0 1361 c3d3 2b85 3fc0
00000060: 61c3 d32b 6551 40c0 840d 4faf 94d5 40c0
00000070: bde3 141d c965 41c0 c4b1 2e6e a3c1 41c0
00000080: 5986 38d6 c525 42c0 d49a e61d a7d0 42c0
00000090: 696f f085 c934 43c0 0ebe 3099 2aa8 43c0
000000a0: 2063 ee5a 420e 44c0 9053 7424 9767 44c0
000000b0: 4f40 1361 c3c3 44c0 3433 3333 3343 45c0
000000c0: c829 3a92 cb97 45c0 7cd0 b359 f519 46c0
000000d0: 9be6 1da7 e878 46c0 772d 211f f424 46c0
000000e0: d26f 5f07 cea9 45c0 8d28 ed0d be40 45c0
000000f0: f038 4547 7221 45c0 24b9 fc87 f4fb 44c0
00000100: 98ff 907e fbe2 44c0 f241 cf66 d5cf 44c0
00000110: 98dd 9387 8532 45c0 b91e 85eb 5108 46c0
00000120: 865a d3bc e3e4 46c0 789c a223 b9f4 47c0
00000130: 21b0 7268 91bd 48c0 b5a6 79c7 29a2 49c0
00000140: ec9e 3c2c d45a 4ac0 2cf6 97dd 93ef 4ac0
00000150: e8fb a9f1 d26d 4bc0 073d 9b55 9f93 4bc0
00000160: 67d5 e76a 2bce 4bc0 dc46 0378 0b2c 4cc0
00000170: a189 b0e1 e96d 4cc0 a8c6 4b37 89a9 4cc0
00000180: 065f 984c 151c 4dc0 3945 4772 f90f 4ec0
00000190: ff21 fdf6 75f0 4ec0 7c61 3255 30ca 4fc0
000001a0: b459 f5b9 da56 50c0 e258 17b7 d1c4 50c0
000001b0: c976 be9f 1a33 51c0 82e2 c798 bb96 51c0
000001c0: dfe0 0b93 a906 52c0 925c fe43 fa69 52c0
000001d0: 6f81 04c5 8fc9 52c0 098a 1f63 ee2e 53c0
000001e0: a757 ca32 c47d 53c0 71ac 8bdb 68f0 53c0
000001f0: 8716 d9ce f74f 54c0 e436 1ac0 5bac 54c0
00000200: dbf9 7e6a bc0c 55c0 721b 0de0 2d68 55c0
00000210: 7c61 3255 30be 55c0 9d11 a5bd c103 56c0
00000220: 37ab 3e57 5b25 56c0 4bc8 073d 9b8d 56c0
00000230: 8941 60e5 d0c6 56c0 577d aeb6 62fb 56c0
00000240: 022b 8716 d91e 57c0 4260 e5d0 223b 57c0
00000250: 1214 3fc6 dc61 57c0 ed9e 3c2c d482 57c0
00000260: 6c78 7aa5 2c2b 58c0 14ae 47e1 7acc 58c0
-22.694899999999997 -23.2293 -23.812099999999997 -24.4472 -25.1391 -25.833499999999997 -26.5897 -27.4145
-28.313899999999997 -29.358399999999996 -30.4969 -31.5202 -32.6359 -33.6686 -34.7952 -35.5128
-36.2951 -37.6301 -38.4124 -39.3138 -40.1114 -40.80930000000001 -41.5294 -42.525000000000006
-43.185900000000004 -44.202799999999996 -44.9446 -44.2887 -43.3266 -42.5058 -42.261300000000006 -41.9684
-41.773300000000006 -41.6237 -42.3947 -44.065000000000005 -45.7882 -47.9119 -49.481 -51.2669
-52.709599999999995 -53.871700000000004 -54.858000000000004 -55.153299999999994 -55.6107 -56.3441 -56.858700000000006 -57.3245
-58.21939999999999 -60.1248 -61.8786 -63.5796 -65.3571 -67.0753 -68.7985 -70.3552
-72.1041 -73.6559 -75.1494 -76.7333 -77.96509999999999 -79.7564 -81.2495 -82.69310000000002
-84.199 -85.62780000000001 -86.9717 -88.0587 -88.58370000000001 -90.2126 -91.1065 -91.92790000000001
-92.482 -92.924 -93.5291 -94.0442 -96.6746 -99.195
